model/best_model_finetuned.pt (torch_old, 207694 bytes, 8 tensors)

mlp_hidden_0.weight f4 [64, 768]
0.037667993 -0.05001996 0.06837281 -0.09609404 0.1199236 -0.1353381 -0.018308472 -0.026520964
0.06685768 -0.014755913 0.027420321 -0.12345582 -0.24223876 0.026534436 0.19558595 -0.03588169
0.0016751704 0.06624578 -0.09814395 0.12287095 -0.09090303 0.08348743 0.095641576 -0.0006694393
-0.006966544 -0.12518094 0.023085298 -0.052881602 0.0066184867 0.04432628 0.11429513 -0.23152532
0.034515597 0.17491424 0.3373055 -0.069728054 0.22376417 -0.19462633 0.21065876 -0.100499965
0.02897977 0.016278598 -0.14226724 0.09242205 0.36408973 0.25152948 0.19635014 -0.11640001
-0.07655812 0.005525385 -0.047852956 0.21300463 0.18579309 0.13073792 0.11323036 0.0913594
-0.1597905 -0.04589098 -0.15941957 0.012201867 0.02765706 -0.09691261 0.05696361 0.02672038
0.22583996 -0.10129088 0.07327891 -0.010290081 0.06523084 -0.12938868 -0.23019733 -0.11857247
0.10213304 0.0066648275 0.0029190595 0.18756469 0.052215066 -0.085095465 -0.035009865 0.12306715
-0.013915915 0.041577194 -0.04619203 0.013394538 0.032524653 -0.044394005 -0.12535648 0.09572199
0.14269298 -0.13004805 -0.24572791 -0.014272759 0.10287969 -0.03980216 -0.07802918 -0.13302107
0.35176894 0.012913378 -0.07814236 0.13104928 0.022231575 -0.043690808 -0.026429813 -0.015848009
0.3504366 0.025656534 0.048710395 -0.08194733 0.004731757 -0.1088887 -0.082750715 0.03891737
-0.0054303044 -0.22934587 0.06038351 -0.015436316 0.05950798 -0.12563525 -0.0062567024 0.12789455
0.23178732 -0.046714824 -0.25190935 -0.014626734 -0.0818843 -0.2751102 0.10504634 0.007151202
-0.14775552 -0.06763342 0.024252318 0.041299336 0.16674015 0.10779912 -0.07970998 0.020551912
-0.11138478 0.0013400462 0.01414486 -0.08973919 0.11804662 -0.21565633 0.07008046 -0.017356165
-0.09021298 -0.036179416 0.24210687 -0.26590624 0.34118262 -0.1700105 0.11328612 0.18888341
0.06783985 0.1706384 0.034006648 -0.13635187 -0.010641046 0.10243804 0.09451159 -0.18253592
0.021908738 0.11719009 0.045677904 0.12508081 0.014539947 0.14420825 -0.07524076 0.1422618
0.21893352 0.044761628 -0.14624935 0.023086 0.013376548 0.0709771 -0.105320506 0.09261669
-0.06855703 0.11209702 0.0918081 -0.15702572 0.1530848 0.1060074 0.024718247 0.046856765
-0.049377445 -0.026639068 0.080002636 0.12409977 -0.3010474 0.018312182 -0.07884727 0.2177012
-0.23360504 -0.21732946 0.13755073 -0.005458334 -0.146912 0.11417419 -0.06072483 -0.04621297
-0.08272851 -0.24479806 -0.17027833 0.23143996 0.123119764 -0.18353719 -0.0064616576 -0.06765792
0.15499313 -0.01141163 -0.06606365 0.027594524 0.02340026 -0.016602928 -0.11275743 -0.03017035
0.15502356 -0.004955101 0.13075246 -0.32203504 0.23527564 0.07683092 -0.14459017 0.007263043
-0.08066246 0.07460234 0.10103409 0.104680285 0.112943165 0.15227036 0.18576878 0.17730382
-0.15620913 0.052273694 -0.1823592 0.115177885 -0.02351185 -0.10706341 -0.10493173 -0.20725141
0.104206204 0.020650335 -0.11464592 -0.07024786 0.16285983 0.044662993 -0.01181161 0.0853121
0.2918911 0.14722979 0.102085724 -0.0021660093 -0.16271791 -0.065513626 -0.10206193 -0.12632371
00000000: c149 1a3d bbe1 4cbd 0b07 8c3d f4cc c4bd
00000010: 819a f53d 1296 0abe a6fb 95bc 7e42 d9bc
00000020: aeec 883d c9c2 71bc 95a0 e03c 68d6 fcbd
00000030: 700d 78be bf5e d93c af47 483e aef8 12bd
00000040: 6491 db3a deab 873d b2ff c8bd c4a3 fb3d
00000050: 5e2b babd 75fb aa3d bbdf c33d 507d 2fba
00000060: 9b47 e4bb 6f2f 00be 611d bd3c 619a 58bd
00000070: e4df d83b 798f 353d 9113 ea3d f914 6dbe
00000080: 3a60 0d3d b81c 333e 4eb3 ac3e 95cd 8ebd
00000090: 6f22 653e 204c 47be eeb6 573e edd2 cdbd
000000a0: fc66 ed3c b25a 853c 81ae 11be c647 bd3d
000000b0: f869 ba3e 79c8 803e 0310 493e 2163 eebd
000000c0: 81ca 9cbd 4a0e b53b 7601 44bd e31d 5a3e
000000d0: 8b40 3e3e 29e0 053e 52e5 e73d a31a bb3d
000000e0: 1fa0 23be 2ef8 3bbd e23e 23be 57ea 473c
000000f0: 0f91 e23c 1e7a c6bd ad52 693d b3e4 da3c
00000100: 9742 673e 9871 cfbd 4113 963d ba97 28bc
00000110: bf97 853d 777e 04be d9b8 6bbe 20d6 f2bd
00000120: 212b d13d a064 da3b b14d 3f3b f510 403e
00000130: 77df 553d 8846 aebd 8166 0fbd a10a fc3d
00000140: 94ff 63bc d94c 2a3d db33 3dbd c474 5b3c
00000150: 9238 053d 7dd6 35bd 735d 00be e409 c43d
00000160: 1c1e 123e 512b 05be 19a0 7bbe 4ad8 69bc
00000170: 96b2 d23d 9707 23bd c3cd 9fbd ad36 08be
00000180: 0f1b b43e a292 533c 1a09 a0bd c831 063e
00000190: fe1e b63c 22f5 32bd 5683 d8bc afd3 81bc
000001a0: 6d6c b33e a72d d23c 8d84 473d 00d4 a7bd
000001b0: db0c 9b3b 0a01 dfbd 3579 a9bd d267 1f3d
000001c0: b2f0 b1bb a5d9 6abe b354 773d 9ae8 7cbc
000001d0: a4be 733d 87a6 00be 0605 cdbb caf6 023e
000001e0: a859 6d3e 0b58 3fbd 43fa 80be f8a4 6fbc
000001f0: f5b2 a7bd 3edb 8cbe 8922 d73d a154 ea3b
00000200: 394d 17be 6483 8abd ccac c63c 7e29 293d
00000210: eebd 2a3e c9c5 dc3d fc3e a3bd 7c5c a83c
00000220: b41d e4bd 7da4 af3a d8bf 673c 2ec9 b7bd
00000230: 6dc2 f13d 03d5 5cbe 5886 8f3d 842e 8ebc
00000240: 95c1 b8bd de30 14bd ddea 773e dd24 88be
00000250: 7daf ae3e 3c17 2ebe 8e02 e83d a76a 413e
00000260: 9fef 8a3d d5bb 2e3e 8e4a 0b3d d39f 0bbe
00000270: c857 2ebc 09cb d13d 4b8f c13d b2ea 3abe
00000280: f479 b33c 5c01 f03d c118 3b3d 2f15 003e
00000290: f538 6e3c 54ab 133e d417 9abd 14ad 113e
000002a0: 1c30 603e f857 373d 64c2 15be da1e bd3c
000002b0: 4f29 5b3c 715c 913d 47b2 d7bd d2ad bd3d
000002c0: a167 8cbd 1f93 e53d e305 bc3d 5acb 20be
000002d0: 43c2 1c3e 681a d93d ec7d ca3c e1ec 3f3d
000002e0: 0140 4abd 2d3a dabc 6cd8 a33d 0528 fe3d
000002f0: e322 9abe 6e03 963c ad7a a1bd 10ed 5e3e
00000300: 2936 6fbe 9d8b 5ebe 19da 0c3e d3db b2bb
00000310: 1970 16be 28d4 e93d 99ba 78bd d049 3dbd
00000320: 916d a9bd 58ac 7abe 715d 2ebe 99fe 6c3e
00000330: 3726 fc3d 2cf1 3bbe 50bc d3bb 3c90 8abd
00000340: 85b6 1e3e d8f7 3abc 614c 87bd e90d e23c
00000350: e7b1 bf3c dd02 88bc 5eed e6bd cf27 f7bc
00000360: 7fbe 1e3e 665e a2bb f9e3 053e c7e1 a4be
00000370: 19ec 703e 8859 9d3d 720f 14be d2fe ed3b
00000380: 5c32 a5bd 1dc9 983d f6ea ce3d 9e62 d63d
00000390: bf4e e73d c3ec 1b3e 2c3a 3e3e 228f 353e
000003a0: 49f5 1fbe f11c 563d 5fbc 3abe 62e2 eb3d
000003b0: ec9b c0bc 1044 dbbd 72e6 d6bd b739 54be
000003c0: 106a d53d e42a a93c 7bcb eabd 1cde 8fbd
000003d0: bac4 263e 8bf0 363d 7c85 41bc 1cb8 ae3d
000003e0: c072 953e 68c3 163e 5212 d13d 9bf3 0dbb
000003f0: 869f 26be 022c 86bd d805 d1bd 015b 01be

mlp_hidden_0.bias f4 [64]
-0.036337838 0.037571907 -0.0701526 -0.07565518 0.08208046 0.053172756 0.016059065 -0.059159618
-0.02384862 -0.051256664 0.0685027 0.040966026 -0.040618367 -0.031020377 0.06455015 0.058506552
-0.05724167 0.05366741 0.0508551 -0.058961682 0.008279157 0.033108734 0.078062385 0.1084825
0.017032208 0.041752722 -0.09685889 0.06636031 0.0050346563 0.031980537 -0.0453891 -0.0051113255
0.034894623 -0.013733709 0.006325401 -0.09060451 -0.04869446 0.057096954 0.024075834 0.11144823
-0.020497426 0.043335315 -0.092832826 -0.07758788 0.017866198 0.040801656 0.08378108 -0.061096493
-0.07108091 0.027914597 0.07055025 -0.040246006 0.07152768 0.082139045 0.013659575 0.021328041
0.03641121 -0.042764824 0.0015463876 0.0503337 -0.0018150583 0.048622884 0.03197523 -0.09687065
00000000: fcd6 14bd 00e5 193d 2bac 8fbd 1af1 9abd
00000010: cd19 a83d adcb 593d 4d8e 833c 5b51 72bd
00000020: 2e5e c3bc 82f2 51bd 254b 8c3d fecb 273d
00000030: 725f 26bd 721e febc de32 843d 91a4 6f3d
00000040: 3e76 6abd 5cd2 5b3d 704d 503d ce81 71bd
00000050: 4da5 073c 069d 073d 2cdf 9f3d 132c de3d
00000060: 2187 8b3c e704 2b3d f45d c6bd eae7 873d
00000070: c2f9 a43b 06fe 023d ece9 39bd e87c a7bb
00000080: aaed 0e3d 5a03 61bc 4f45 cf3b db8e b9bd
00000090: d873 47bd 7fde 693d af3a c53c f83e e43d
000000a0: 38ea a7bc 5f80 313d 231f bebd 65e6 9ebd
000000b0: 225c 923c a31f 273d 6a95 ab3d 5140 7abd
000000c0: de92 91bd 27ad e43c a67c 903d ffd8 24bd
000000d0: 1b7d 923d 8438 a83d 69cc 5f3c 25b8 ae3c
000000e0: ec23 153d 2b2a 2fbd 28b0 ca3a b62a 4e3d
000000f0: 40e7 edba ca28 473d 75f8 023d 1f64 c6bd

mlp_hidden_1.weight f4 [32, 64]
0.39378795 0.080764 0.2967073 0.20623027 0.02367419 -0.03707889 -0.1738217 -0.09837682
0.17814119 -0.05208272 0.03929861 0.036119115 0.1657633 -0.0012097054 0.02512855 -0.36865088
0.080281235 0.14975873 0.002553591 -0.011593849 0.018372633 0.13365027 -0.38141158 -0.33515295
-0.047527913 0.11021184 0.03333726 -0.035077438 -0.03368293 -0.1206337 0.02829966 -0.027967354
0.01291327 0.06989691 -0.28899923 -0.08005502 -0.14298348 -0.0086220745 0.09473711 -0.057071682
-0.06573583 -0.00402051 0.35033524 0.01901083 0.015673533 -0.0055173226 -0.05214441 -0.23012981
-0.15156054 -0.3668465 0.059280306 0.20923533 -0.19315472 0.07802883 0.012278878 -0.02661375
-0.12400337 0.06854065 0.030265268 -0.18172888 0.14890246 0.023453673 -0.084761254 0.06842517
0.49008018 -0.07309906 0.26477328 0.18030515 -0.13400684 -0.02235253 -0.05740025 -0.026941422
0.019932719 0.1868451 -0.008969591 -0.0960625 0.12128329 -0.13953198 0.086587645 -0.43017867
0.021650651 -0.008048251 0.015846692 -0.1094808 0.121205986 0.11688228 -0.13287705 -0.23514675
0.004870129 -0.05949871 0.07907982 0.034221977 -0.09262255 -0.18836054 0.048286583 -0.11197308
0.14932637 -0.021098206 -0.2016159 -0.09990312 -0.022403022 0.035801105 0.05637597 0.09062049
0.02499548 0.26994744 0.28988296 -0.03285834 0.0363728 0.10974496 0.05514279 -0.0506784
-0.094283246 -0.3248939 0.02363513 0.44542655 -0.07972568 -0.01574879 -0.11447325 -0.03507681
-0.0076819947 0.034737825 -0.15971005 -0.18306348 -0.050180677 0.05661595 -0.08670842 -0.12902047
0.37516576 0.0440996 0.14659803 -0.064426154 -0.041463703 -0.0015503315 -0.13099094 -0.06563185
0.068590574 0.011424096 -0.20808531 -0.029058747 -0.08866804 0.005624287 0.21906778 -0.1464747
-0.059120364 0.12973419 0.024718877 0.11038049 0.08756496 0.0863989 -0.19871354 -0.13318641
-0.0784529 0.08910708 0.09796053 -0.0043301694 -0.110403754 -0.08507409 0.11088442 0.09454356
-0.0853163 0.00076424284 -0.15958537 0.17904574 0.068575904 0.08018853 -0.13376854 0.06826749
0.016966226 0.061401077 0.3070256 0.10055059 -0.088218294 0.11847787 -0.2746847 0.024067983
-0.118072525 -0.28964302 -0.15032789 0.15202498 -0.062148806 -0.0808971 -0.033307005 -0.058419995
-0.09558773 -0.050993185 0.12813467 -0.24928308 0.16362192 0.1075196 -0.0920654 -0.001089135
-0.38274255 -0.16526827 -0.30890954 -0.010540144 -0.123170555 -0.10420437 -0.040557865 0.0885472
0.11562061 0.06439397 0.03395395 -0.015309472 -0.120015 -0.12571402 -0.022447094 0.4451631
0.040469438 -0.14482804 -0.012117866 0.15619001 0.042983625 -0.026353024 0.08982392 0.24549791
-0.009829847 0.14918448 0.15768485 -0.006716485 0.11880648 -0.14196989 -0.20331524 0.09151322
0.0006317121 0.07438158 0.18371812 0.1201775 0.01653633 0.023730043 -0.010908624 0.018963046
0.068803914 -0.075130016 -0.41010323 0.024691012 0.07806875 -0.07465956 -0.12721388 0.039305072
0.22143468 0.28068608 0.023946654 -0.04640637 0.0898369 0.05891624 -0.031186555 -0.14692362
-0.13242103 0.079957426 -0.12726492 0.24080077 -0.15708354 -0.0832853 -0.02949332 -0.08345599
00000000: 939e c93e 9967 a53d 05ea 973e 072e 533e
00000010: 60f0 c13c 09e0 17bd 51fe 31be c979 c9bd
00000020: a56a 363e b154 55bd 94f7 203d a3f1 133d
00000030: dbbd 293e fa8e 9eba 64da cd3c cfbf bcbe
00000040: 7d6a a43d 5a5a 193e 265a 273b 21f4 3dbc
00000050: 3482 963c 9edb 083e 6148 c3be 2b99 abbe
00000060: a1ac 42bd bfb6 e13d a78c 083d 5cad 0fbd
00000070: 1df7 09bd cd0e f7bd b0d4 e73c cb1b e5bc
00000080: 2e92 533c 1c26 8f3d b5f7 93be e3f3 a3bd
00000090: 436a 12be 9a43 0dbc 8805 c23d ffc3 69bd
000000a0: 82a0 86bd 7bbe 83bb 245f b33e 9abc 9b3c
000000b0: c865 803c a8ca b4bb 6095 55bd 26a7 6bbe
000000c0: b032 1bbe 4ed3 bbbe e8cf 723d c941 563e
000000d0: 5aca 45be 94cd 9f3d 592d 493c 1405 dabc
000000e0: 7bf5 fdbd 0a5f 8c3d deee f73c 2317 3abe
000000f0: e379 183e eb21 c03c 4f97 adbd 7f22 8c3d
00000100: caeb fa3e f6b4 95bd 5d90 873e eaa1 383e
00000110: 1739 09be a71c b7bc 861c 6bbd 42b4 dcbc
00000120: f149 a33c 5254 3f3e 31f5 12bc 6abc c4bd
00000130: 6063 f83d 79e1 0ebe dd54 b13d 6140 dcbe
00000140: b55c b13c d0dc 03bc ecd0 813c 7837 e0bd
00000150: d83a f83d fa5f ef3d ec10 08be 4fca 70be
00000160: 9a95 9f3b ebb4 73bd 9af4 a13d 582c 0c3d
00000170: e4b0 bdbd 96e1 40be 27c8 453d 2452 e5bd
00000180: 03e9 183e 25d6 acbc 6674 4ebe 029a ccbd
00000190: 8b86 b7bc 2ea4 123d 7dea 663d 3c97 b93d
000001a0: 52c3 cc3c 8d36 8a3e 8a6b 943e 7796 06bd
000001b0: a5fb 143d f7c1 e03d 68dd 613d 2794 4fbd
000001c0: 9317 c1bd 7e58 a6be 769e c13c f30e e43e
000001d0: 3847 a3bd 9b03 81bc f470 eabd b3ac 0fbd
000001e0: 3eb9 fbbb 4049 0e3d 088b 23be fe74 3bbe
000001f0: 418a 4dbd 20e6 673d 2f94 b1bd f11d 04be
00000200: ba15 c03e c8a1 343d cb1d 163e dcf1 83bd
00000210: d8d5 29bd 7e34 cbba 7d22 06be fe69 86bd
00000220: 3779 8c3d 222c 3b3c 5114 55be 9c0c eebc
00000230: 9797 b5bd f04b b83b 4e53 603e 77fd 15be
00000240: 3228 72bd 0ad9 043e 3e7f ca3c 2b0f e23d
00000250: 4255 b33d e8f1 b03d 907b 4bbe 0562 08be
00000260: eaab a0bd c67d b63d 889f c83d 18e4 8dbb
00000270: 5d1b e2bd 533b aebd 5f17 e33d 0ea0 c13d
00000280: 50ba aebd 7857 483a 596a 23be c457 373e
00000290: 8671 8c3d e239 a43d 9ffa 08be d3cf 8b3d
000002a0: c1fc 8a3c b27f 7b3d 7632 9d3e 78ed cd3d
000002b0: cbab b4bd 87a4 f23d 79a3 8cbe 382a c53c
000002c0: 02d0 f1bd 174c 94be 8eef 19be 70ac 1b3e
000002d0: bf8f 7ebd 61ad a5bd ed6c 08bd ce49 6fbd
000002e0: 80c3 c3bd 3bde 50bd bc35 033e 1044 7fbe
000002f0: 818c 273e 3c33 dc3d c98c bcbd 4ec1 8eba
00000300: d5f6 c3be 163c 29be 6429 9ebe 91b0 2cbc
00000310: d840 fcbd 1a69 d5bd 0120 26bd 3c58 b53d
00000320: 80ca ec3d fce0 833d 4c13 0b3d 94d4 7abc
00000330: 6dca f5bd 2dbb 00be f8e2 b7bc 6bec e33e
00000340: 48c3 253d cd4d 14be 048a 46bc 46f0 1f3e
00000350: 990f 303d 4ce2 d7bc 9af5 b73d ce63 7b3e
00000360: 5e0d 21bc d1c3 183e 2378 213e f615 dcbb
00000370: d050 f33d 8e60 11be df31 50be 486b bb3d
00000380: 7b99 253a 5f55 983d 9a20 3c3e 9f1f f63d
00000390: 3377 873c 8265 c23c 16ba 32bc 6458 9b3c
000003a0: 11e9 8c3d c4dd 99bd 0df9 d1be ce44 ca3c
000003b0: 82e2 9f3d 1de7 98bd 5b44 02be 5bfe 203d
000003c0: c6bf 623e 16b6 8f3e c62b c43c 9b14 3ebd
000003d0: 69fc b73d 2852 713d f27a ffbc 2573 16be
000003e0: 6199 07be b8c0 a33d bc51 02be 7a94 763e
000003f0: 82da 20be 7c91 aabd fa9b f1bc f9ea aabd

mlp_hidden_1.bias f4 [32]
-0.035483208 0.011287849 -0.029539274 -0.06619021 -0.08734844 -0.014042268 -0.17413005 -0.037612483
0.06381444 0.05715829 -0.0022302577 -0.045771107 -0.033782225 -0.05493164 -0.019115819 0.033792194
0.00045655912 -0.053815793 -0.073907286 -0.09605612 0.107299775 -0.0013959466 -0.05205495 -0.002711064
-0.091292106 -0.11613642 0.022361653 -0.08874025 -0.023657542 0.09354868 -0.08408692 0.030976806
00000000: d756 11bd acf0 383c 59fc f1bc bc8e 87bd
00000010: bde3 b2bd 8a11 66bc 264f 32be 8c0f 1abd
00000020: 25b1 823d d01e 6a3d 8429 12bb 7c7a 3bbd
00000030: 3b5f 0abd 0000 61bd c798 9cbc af69 0a3d
00000040: 545e ef39 f36d 5cbd b45c 97bd 12b9 c4bd
00000050: fcbf db3d 32f8 b6ba 9237 55bd 1bac 31bb
00000060: 5bf7 babd eed8 edbd c92f b73c 73bd b5bd
00000070: 76cd c1bc 7396 bf3d c335 acbd 12c3 fd3c

mlp_hidden_2.weight f4 [8, 32]
0.076176286 0.12876491 0.07698824 -0.14224641 -0.167587 -0.16703945 -0.025578192 0.01696574
0.051558595 0.025511997 0.120744504 -0.07820708 0.021579983 0.270358 0.14546297 -0.14213842
-0.16715506 -0.09557676 0.017284581 -0.01051016 0.052497186 -0.027547063 -0.1372837 0.05461015
-0.055837825 0.097943634 0.09885578 0.06326276 -0.040102687 0.108948186 0.094409205 -0.047016613
0.108186856 0.09072384 0.06631013 -0.07001178 0.03345875 -0.15358166 -0.09445988 -0.013725594
0.06511114 -0.16451362 0.17129445 -0.32683918 0.051151 0.12889615 0.047140192 -0.19638497
-0.05468535 -0.04456743 -0.008337007 0.09254453 0.055431154 -0.12112996 0.013459754 0.03276868
0.038676243 0.122068934 0.16722548 8.433452e-05 -0.10438265 -0.021306861 0.09657768 -0.002944193
-0.15533 -0.0801668 -0.052322634 0.1351412 0.13260694 0.12253104 0.14654657 -0.069903694
0.0661092 -0.0043684626 -0.10279172 -0.009870211 -0.122479185 -0.15005553 -0.16326495 0.11766611
0.060335096 0.046024576 0.047750447 -0.18944721 -0.10075849 0.103656866 0.12270914 -0.14195386
-0.12220975 -0.08308007 -0.114168756 -0.16725458 0.016955335 -0.16244303 0.009993227 0.07787935
0.11478101 0.06759816 0.07262637 -0.090868115 -0.030352743 -0.1697559 -0.06430997 -0.029994082
0.09599847 -0.24387501 0.033652883 -0.11838236 0.15791489 0.25798333 0.086386956 -0.03983471
-0.016320605 -0.015732488 -0.022354009 0.0610513 0.030131059 -0.062021565 -0.08014562 0.06633804
-0.06884219 0.12413788 0.09018142 0.060743097 -0.15405281 0.11265779 0.11543654 -0.05007108
-0.17493317 -0.1652907 -0.14490528 -0.05315536 0.14327794 0.07257205 -0.021083716 0.18953668
-0.12295511 0.050514054 0.00736019 0.09253125 -0.11887264 -0.053086624 -0.07542766 -0.11810012
0.048357755 0.120791815 -0.07162119 -0.16260937 0.020427503 0.048813593 0.15022972 -0.12270463
-0.025484495 -0.1410093 -0.13006254 -0.108041056 0.09442814 -0.097586215 -0.1262394 0.11234444
-0.14837588 -0.072022475 -0.12210861 0.121740125 0.10149805 0.08646327 0.07421101 -0.0327223
-0.038379136 0.114864945 -0.1286413 0.054005485 -0.15761727 -0.19577728 -0.20548406 0.21884929
0.008408061 0.03160234 0.15976124 -0.15534961 -0.012433357 0.15663283 0.21500374 -0.045223054
-0.023641117 -0.16914693 -0.16006012 0.05790606 0.13899727 0.016908057 0.091033354 -0.041805293
0.1321838 0.06624801 0.102588765 -0.14266181 -0.10893665 -0.13036041 -0.05929542 -0.029044442
-0.00043860544 -0.08911968 0.14345887 -0.017789982 0.05287893 0.17809974 0.11379076 -0.21334055
-0.13506764 -0.043817025 0.018363018 0.15912452 -0.002923867 -0.080874816 -0.103388086 0.20713238
-0.004133589 0.09163287 0.12881102 0.04066278 -0.15063323 -0.0061168117 -0.005456215 0.024213014
-0.04001547 0.15149198 -0.008086945 0.050369423 -0.10293411 -0.023596382 0.05354505 -0.030525569
-0.059065543 -0.11789498 0.09298286 -0.032117132 0.1787422 0.120925136 0.15901211 -0.03967896
-0.10874519 0.046408188 0.14796017 0.19166493 -0.0637582 -0.07614196 -0.14049493 0.11542523
0.06255779 0.18151174 0.17175768 0.0003513199 -0.16837673 0.0062540164 -0.01286413 0.025009759
00000000: 5002 9c3d f3da 033e 03ac 9d3d 0ba9 11be
00000010: ed9b 2bbe 640c 2bbe 5b89 d1bc bcfb 8a3c
00000020: 1b2f 533d 89fe d03c e548 f73d 092b a0bd
00000030: 81c8 b03c 5d6c 8a3e 3ff4 143e bc8c 11be
00000040: b22a 2bbe c0bd c3bd 6598 8d3c ce32 2cbc
00000050: 4a07 573d 61aa e1bc 1994 0cbe e5ae 5f3d
00000060: 34b6 64bd ac96 c83d e674 ca3d e88f 813d
00000070: b742 24bd 3a20 df3d 9d59 c13d 7e94 40bd
00000080: 1291 dd3d 6ccd b93d 9bcd 873d 5662 8fbd
00000090: 0b0c 093d 8344 1dbe 2e74 c1bd 50e1 60bc
000000a0: fd58 853d 4276 28be d067 2f3e 7757 a7be
000000b0: b683 513d 5afd 033e 1316 413d 2419 49be
000000c0: bffd 5fbd 568c 36bd f197 08bc fd87 bd3d
000000d0: c70b 633d fc12 f8bd 4d86 5c3c 7438 063d
000000e0: fb6a 1e3d 47ff f93d 283d 2b3e c0dc b038
000000f0: 92c6 d5bd ba8b aebc 85ca c53d 5df3 40bb
00000100: d40e 1fbe 7e2e a4bd 4250 56bd 7462 0a3e
00000110: 1dca 073e 8ef1 fa3d 4e10 163e ab29 8fbd
00000120: 4364 873d 5225 8fbb 7784 d2bd aab6 21bc
00000130: 5ed6 fabd 28a8 19be ed2e 27be eefa f03d
00000140: ef21 773d 4484 3c3d f995 433d 73fe 41be
00000150: 785a cebd 0d4a d43d ee4e fb3d 5a5c 11be
00000160: 1b49 fabd e225 aabd 4fd1 e9bd c944 2bbe
00000170: eae5 8a3c 7757 26be a2ba 233c 357f 9f3d
00000180: 4e12 eb3d e770 8a3d 22bd 943d 1019 babd
00000190: 51a6 f8bc 7ed4 2dbe f2b4 83bd 26b6 f5bc
000001a0: d99a c43d 5fba 79be 9bd7 093d 7372 f2bd
000001b0: 71b4 213e 6416 843e a5eb b03d b929 23bd
000001c0: cab2 85bc 6be1 80bc c11f b7bc ee10 7a3d
000001d0: 69d5 f63c 530a 7ebd 6323 a4bd 3ddc 873d
000001e0: 22fd 8cbd 003c fe3d 09b1 b83d c1cd 783d
000001f0: 05c0 1dbe 21b9 e63d fe69 ec3d 5517 4dbd
00000200: ae21 33be f741 29be 0d62 14be 6fb9 59bd
00000210: 74b7 123e a8a0 943d c2b7 acbc e715 423e
00000220: e4cf fbbd d3e7 4e3d c02d f13b 0681 bd3d
00000230: 8073 f3bd 5c71 59bd d179 9abd 7ade f1bd
00000240: c812 463d b361 f73d 21ae 92bd 1283 26be
00000250: 9457 a73c c3f0 473d d2d5 193e 914c fbbd
00000260: dcc4 d0bc be64 10be 1d2f 05be a144 ddbd
00000270: 8a63 c13d 48db c7bd e744 01be d714 e63d
00000280: d9ef 17be 8580 93bd 1414 fabd e352 f93d
00000290: 36de cf3d a813 b13d f1fb 973d d207 06bd
000002a0: 7133 1dbd 503e eb3d 8cba 03be db34 5d3d
000002b0: 6c66 21be d779 48be 6a6a 52be 071a 603e
000002c0: f7c1 093c 7571 013d 7398 233e f813 1fbe
000002d0: 47b5 4bbc 5b64 203e f129 5c3e cf3b 39bd
000002e0: 04ab c1bc da34 2dbe cde6 23be e82e 6d3d
000002f0: 4d55 0e3e c482 8a3c b26f ba3d 073c 2bbd
00000300: 315b 073e 09ad 873d 0f1a d23d f015 12be
00000310: 2e1a dfbd 337d 05be c1df 72bd 9cee edbc
00000320: a0f4 e5b9 6184 b6bd e2e6 123e 4cbc 91bc
00000330: 9497 583d c75f 363e 210b e93d f275 5abe
00000340: 2c4f 0abe 7b79 33bd 0a6e 963c 8af1 223e
00000350: 599e 3fbb b2a1 a5bd 22bd d3bd 831a 543e
00000360: 0f73 87bb 04aa bb3d 09e7 033e 048e 263d
00000370: 993f 1abe 896f c8bb 0cca b2bb 5f5a c63c
00000380: 43e7 23bd b720 1b3e 1b7f 04bc 2b50 4e3d
00000390: 1ecf d2bd 334d c1bc 0e52 5b3d c210 fabc
000003a0: b6ee 71bd ec72 f1bd cc6d be3d 418d 03bd
000003b0: 3208 373e 99a7 f73d 12d4 223e 6886 22bd
000003c0: ccb5 debd 8316 3e3d df82 173e d043 443e
000003d0: a993 82bd 51f0 9bbd e7dd 0fbe 1064 ec3d
000003e0: 4c1e 803d 37de 393e 3fe1 2f3e 5c31 b839
000003f0: f36a 2cbe 7eee cc3b 12c4 52bc 44e1 cc3c

mlp_hidden_2.bias f4 [8]
0.034269348 -0.06723979 -0.022146638 0.024353102 0.0067982073 -0.024293056 -0.034126554 0.01795015
00000000: 045e 0c3d 04b5 89bd de6c b5bc 2880 c73c
00000010: 7fc3 de3b 3b02 c7bc 49c8 0bbd 310c 933c

mlp_out.weight f4 [2, 8]
-0.20967527 -0.18261276 0.058649566 -0.20043522 0.06828637 0.15292452 0.052414868 -0.31355822
0.16763096 0.07931786 -0.2849869 0.18823592 -0.36258146 -0.27096483 0.34813744 0.04401286
00000000: 1db5 56be d7fe 3abe 873a 703d e43e 4dbe
00000010: b9d9 8b3d 3f98 1c3e f9b0 563d b48a a0be
00000020: 73a7 2b3e 6771 a23d cee9 91be ebc0 403e
00000030: 47a4 b9be e7bb 8abe 123f b23e d446 343d

mlp_out.bias f4 [2]
-0.037847187 0.012813281
00000000: a705 1bbd ccee 513c
