model/best_model.pt (torch_old, 207694 bytes, 8 tensors)

mlp_hidden_0.weight f4 [64, 768]
0	0x3ba4d377	0.0050300914
1	0xbcbbe60d	-0.022936845
2	0xbd10bd1c	-0.0353366
3	0xbd16570d	-0.03670411
4	0xbcc878a2	-0.024471585
5	0xbd99fba9	-0.075187035
6	0xbc86943b	-0.016428104
7	0xbcfd3e97	-0.030913634
8	0xbc4bcc66	-0.012438869
9	0xbcec2fed	-0.028831447
10	0x3c9502e9	0.018189864
11	0xbcc148df	-0.023594318
12	0xbd880131	-0.06640852
13	0xbd37d1eb	-0.044877928
14	0x3cc47e15	0.023985902
15	0xbbb408b6	-0.0054942025
16	0x3c13dba8	0.009024538
17	0xbc68d5ec	-0.014211159
18	0xbcd1e5ea	-0.025622327
19	0xbda608b1	-0.081071265
20	0x3d15d9f6	0.036584817
21	0xbce9452b	-0.028475365
22	0xbd14a929	-0.036294136
23	0x3a2b06d4	0.000652415
24	0xbc74d783	-0.01494396
25	0xbda007f0	-0.07814014
26	0xbd399630	-0.045309246
27	0x3db2246c	0.08698353
28	0x3d898290	0.06714356
29	0xbc8f168b	-0.017466804
30	0x3c211deb	0.009833793
31	0xbd896d50	-0.06710303
32	0x3c13722f	0.008999391
33	0x3d59f082	0.05320788
34	0x3e0019ba	0.12509814
35	0xbd149879	-0.03627822
36	0x3d00ca34	0.031442836
37	0x3d2cae01	0.04215813
38	0x3d92d49c	0.07169458
39	0xbc8c81e1	-0.017151775
40	0xbc96cf4f	-0.0184094
41	0xbd951def	-0.072811
42	0xbd41f729	-0.04735485
43	0x3c02d0b4	0.007984329
44	0x3c93dec5	0.01805056
45	0xb946465e	-0.00018908965
46	0x3d2a7f21	0.041625146
47	0xbd102d9c	-0.035199746
48	0xb8add607	-8.2891485e-05
49	0xbcd2cd8d	-0.02573278
50	0x3d8daca0	0.06917691
51	0xbc4da484	-0.012551431
52	0x3c23301a	0.009960199
53	0x3dfed987	0.12443834
54	0x3c20eb00	0.009821653
55	0xbd575039	-0.05256674
56	0x3c3bc57e	0.01146066
57	0xba6c3f3d	-0.0009012109
58	0x3af37a57	0.0018575889
59	0xbd3f0726	-0.046637677
60	0xbd808c48	-0.062767565
61	0xbd346f4c	-0.044051453
62	0x3ad49f89	0.0016221862
63	0x3d87f518	0.06638545
64	0x3cdfe1b0	0.027329296
65	0xbaf1c27a	-0.0018444799
66	0x3c125126	0.00893048
67	0xbdffd362	-0.1249149
68	0xbbdfe656	-0.006832878
69	0x3ce390b0	0.027778953
70	0x3cc3b7bd	0.023891324
71	0x3c8cdce5	0.017195174
72	0xbdc31dfb	-0.09527203
73	0x3d48d064	0.04902686
74	0x3c6bbf19	0.014388823
75	0xbcb67d7d	-0.022276634
76	0x3d8dd7a6	0.06925897
77	0x3d6b0f05	0.05738737
78	0xbd9cfcbd	-0.076653935
79	0x3cb9c4f9	0.022676932
80	0x3d6bae1c	0.05753909
81	0xbc4cb7ec	-0.012495022
82	0x3c8b80da	0.017029215
83	0x3cc56416	0.024095576
84	0x3bcdc8c2	0.0062800357
85	0xbced8b77	-0.028997166
86	0x3cc7cf91	0.024390968
87	0xbd2b7aea	-0.041865267
88	0x3dd1a584	0.10236648
89	0xbd0f1990	-0.034936488
90	0x3d5beb55	0.053691227
91	0xbd51295b	-0.05106483
92	0x3cbaa0ce	0.022781756
93	0xbc3cb6e4	-0.011518214
94	0x3d1fb965	0.038995165
95	0xbd73dc38	-0.05953619
96	0x3c41bee4	0.011825297
97	0x3cc5f96e	0.024166789
98	0x3d3467db	0.044044357
99	0xbca30684	-0.019900568
100	0xbd167717	-0.036734667
101	0x3ca26625	0.019824097
102	0xbd995f4a	-0.07488878
103	0x3dc06b9f	0.09395527
104	0x3cd97860	0.026546657
105	0x3bcf7056	0.00633053
106	0x3d9aa6aa	0.0755132
107	0x3a265cd4	0.000634623
108	0x3c5d31ee	0.013500674
109	0xbd83032c	-0.06397089
110	0x3db00f79	0.08596701
111	0x3d8fd817	0.07023638
112	0x3c13a4c4	0.009011451
113	0x3c272969	0.010202744
114	0x3d01b6e9	0.031668577
115	0xbcfdd61a	-0.03098588
116	0x3d4154d8	0.047200054
117	0x3d7c20e7	0.061554816
118	0xbe2f1ed6	-0.17101607
119	0xbb04d135	-0.0020266299
120	0x3d4d7dfb	0.050168972
121	0x3d25c691	0.04047257
122	0xbc75e135	-0.015007307
123	0x3cd81dd4	0.02638141
124	0xbd08edd7	-0.033429947
125	0xbdcb87be	-0.09938
126	0xbd62bf84	-0.055358425
127	0xbb67b3ec	-0.0035355045
128	0x3de14291	0.10999025
129	0xbd161dc6	-0.036649488
130	0xbc59fc32	-0.013304757
131	0xba12413e	-0.000557918
132	0x3d6bf65d	0.057607997
133	0x3c251486	0.010075694
134	0x3d239bf5	0.039943654
135	0xbd84d3fa	-0.06485744
136	0x3d131ea4	0.035917893
137	0x3c0ec74c	0.008714508
138	0x3b39a175	0.0028324996
139	0xbd1d426b	-0.03839342
140	0xbcbd5510	-0.02311185
141	0xbdaea366	-0.085272595
142	0x3a9a2d0e	0.0011762695
143	0xbb394e47	-0.0028275417
144	0xbc9b1561	-0.018931093
145	0x3c93a24f	0.01802173
146	0x3cabf919	0.020992802
147	0x3c028f21	0.007968695
148	0xbd43570e	-0.047690444
149	0xbd67f78a	-0.056632556
150	0xbd08f539	-0.033436988
151	0x3d3bb439	0.04582617
152	0xbc03c229	-0.008041897
153	0x3b542f0a	0.003237667
154	0x3d01a6b0	0.031653106
155	0xbc5e8db5	-0.01358359
156	0xbc12148f	-0.008916034
157	0xbd710b40	-0.05884862
158	0xbdad44fe	-0.08460425
159	0xbc8a0083	-0.016845947
160	0x3d4f95e0	0.05068004
161	0xbd174d4c	-0.03693895
162	0x3cfe150d	0.031015897
163	0xbd845e52	-0.06463303
164	0xbca5b109	-0.020226019
165	0xbd6ad137	-0.05732843
166	0x3d036296	0.03207644
167	0x3d40278e	0.046912722
168	0xbd065e8d	-0.032805014
169	0xbd019e77	-0.031645264
170	0x3c2e0cac	0.010623138
171	0xbcfca3a7	-0.030839754
172	0xbbc6ff8f	-0.0060729454
173	0xbd3c27d2	-0.045936413
174	0x3d68948a	0.056782283
175	0xbd560698	-0.052252382
176	0x3d600a01	0.05469704
177	0xbdf16e01	-0.1178856
178	0x3c983416	0.018579524
179	0xbaac36ba	-0.0013138868
180	0x3d405521	0.046956185
181	0x3c7a184e	0.015264584
182	0xbd56c6aa	-0.052435555
183	0x3c444be3	0.011980983
184	0xbe1d6205	-0.15369423
185	0xbb9de351	-0.004818358
186	0xbca4c645	-0.020114074
187	0xbc4ca378	-0.012490146
188	0x3d25081d	0.04029094
189	0xbd929ca2	-0.071587816
190	0xbdd52d4b	-0.104090296
191	0xbcdc9e4c	-0.02693095
192	0x3ca32eb8	0.019919738
193	0x3d1dacca	0.038494863
194	0x3d5e57ce	0.054282956
195	0xbd398314	-0.04529102
196	0x3d3859e1	0.04500759
197	0xbac27e8c	-0.0014838739
198	0xbd8ce8c5	-0.06880335
199	0x3c0e1359	0.008671605
200	0x3cfb41e8	0.030671075
201	0x3d3f319c	0.04667817
202	0xbc8a7f12	-0.016906295
203	0xbc073b7d	-0.008253929
204	0xba5186e0	-0.0007992815
205	0xbd1dd793	-0.038535666
206	0xbd6178dd	-0.055046905
207	0xbda37546	-0.079813525
208	0xbd1d1ee5	-0.03835954
209	0xbd901d84	-0.0703688
210	0xbc111710	-0.008855596
211	0x3c60e02e	0.013725324
212	0xbd4411dc	-0.047868595
213	0xbcc110a2	-0.023567501
214	0x3d24af5e	0.040206306
215	0xbc0017eb	-0.0078182025
216	0xbcb343e2	-0.021882955
217	0x3dad141e	0.08451103
218	0x3cc48f15	0.023994008
219	0x3d27f626	0.04100623
220	0x3cbaddeb	0.022810897
221	0xbc8e8cba	-0.017401088
222	0x3cbdf1ae	0.02318653
223	0x3d808cb8	0.0627684
224	0x3d0f624c	0.035005853
225	0xbd1c03ca	-0.03808955
226	0x3d5ca05e	0.053863876
227	0xbdf7392b	-0.12071451
228	0xbd537367	-0.051623728
229	0xbcc37e0e	-0.023863818
230	0xbc272c65	-0.010203456
231	0x3b91d1f9	0.0044500795
232	0xbd5638a7	-0.05230012
233	0xbb7d486a	-0.0038647898
234	0xbd022ba2	-0.031779893
235	0xbd8ff685	-0.07029442
236	0x3dbe7494	0.09299579
237	0x3c6f5491	0.014607565
238	0xbc6637ef	-0.014051422
239	0x3c88b144	0.01668609
240	0x3ca491a7	0.020088984
241	0xbc90f1ff	-0.017693518
242	0x3d2306f6	0.03980156
243	0xbc8660b5	-0.016403535
244	0xbd24a677	-0.040197816
245	0xbd92d32b	-0.07169183
246	0xbadd991e	-0.0016906594
247	0xbbbe5f6d	-0.0058097155
248	0x3d1fe435	0.039035995
249	0xbca68974	-0.020329215
250	0x3d044a8d	0.03229766
251	0x3d7fde14	0.06246765
252	0xbd11680a	-0.03549961
253	0x3cf45b5f	0.029828725
254	0x3bc8ca65	0.006127643
255	0x3d6c750a	0.057728805

mlp_hidden_0.bias f4 [64]
0	0xbb1a05a9	-0.002350191
1	0xbbc547e7	-0.0060205343
2	0xbc5efe9c	-0.013610508
3	0xbc8e96b3	-0.017405843
4	0x3c2f6ce8	0.010707118
5	0xbb347944	-0.00275381
6	0xbad99814	-0.0016601109
7	0x3c399b40	0.011328518
8	0x3c263129	0.010143557
9	0x3b833f83	0.004005374
10	0x3ae824f3	0.0017711207
11	0x3c613426	0.013745343
12	0xbcde9058	-0.027168438
13	0xbc9389c6	-0.018010031
14	0x3c44a9f0	0.012003407
15	0x3cd397f0	0.025829285
16	0xb9c2eca2	-0.0003717887
17	0x3bb4aa24	0.0055134464
18	0x3c3164b7	0.010827235
19	0xbd2fbefa	-0.04290674
20	0x3c92f595	0.017939368
21	0xbc9e2d72	-0.01930878
22	0x3d01884b	0.03162412
23	0x3d2e317b	0.042527657
24	0xbc06c8ef	-0.008226617
25	0x3baeb0ec	0.0053311493
26	0xbcc2fdeb	-0.023802718
27	0x3c6d6bc3	0.014491024
28	0x3c4b2154	0.012398083
29	0xbd06bad8	-0.03289303
30	0xbafcb21b	-0.0019279154
31	0x3ce3f7cd	0.027828122
32	0xbbcc455a	-0.0062338533
33	0x3d16f8c6	0.036858343
34	0x3d00deba	0.03146241
35	0x3c0fc9f5	0.008776178
36	0x3b501e3c	0.0031756302
37	0xbc3ddbd9	-0.01158806
38	0xbc2277ed	-0.009916288
39	0xbd36d99d	-0.044641126
40	0x3c1164cf	0.008874132
41	0xbbdc5100	-0.006723523
42	0x3b18ba82	0.0023304527
43	0xbc04a7a9	-0.008096614
44	0x3d2030e2	0.03910912
45	0xbc09d4f5	-0.008412589
46	0xbc000115	-0.007812758
47	0x3c26c2ad	0.01017825
48	0xbbcc8c49	-0.006242309
49	0xbc02a32b	-0.007973473
50	0xbc3a6a05	-0.011377816
51	0xbc1b44f2	-0.009476887
52	0x3b95b85e	0.0045690974
53	0x3cd21f21	0.025649609
54	0xbc3a51b1	-0.011372016
55	0xbcaa14a1	-0.02076179
56	0x3c186fb9	0.0093039805
57	0x3c092b26	0.008372104
58	0xbad3b84b	-0.0016152946
59	0x3ca7d59c	0.0204876
60	0xba03b6c6	-0.0005024489
61	0xbc1acdb5	-0.009448458
62	0xbd04d42d	-0.03242891
63	0xbc63aeed	-0.013896686

mlp_hidden_1.weight f4 [32, 64]
0	0x3d69b2ab	0.057055157
1	0x3da102b4	0.07861844
2	0xbc90f8a2	-0.017696682
3	0x3d6d6909	0.057961497
4	0xbc0489d5	-0.008089502
5	0xbcaa4a4b	-0.020787379
6	0xbda2ebfc	-0.07955167
7	0xbc9d54f7	-0.019205553
8	0xbd8b6891	-0.06807054
9	0xbd36d1fc	-0.04463385
10	0xbc9ced3f	-0.019156097
11	0xbbdbe83e	-0.006711035
12	0x3d25b29f	0.04045355
13	0x3d89e008	0.06732184
14	0x3cd91c9e	0.026502904
15	0xbd987879	-0.07444853
16	0xbd2cd159	-0.042191837
17	0x3d11fefc	0.035643563
18	0x3c116250	0.008873537
19	0x3c0ac3dc	0.008469548
20	0xbd143fd2	-0.036193676
21	0x3ca70691	0.020388873
22	0xbd922853	-0.071365975
23	0xbda7b966	-0.08189659
24	0x3c288bd4	0.010287244
25	0xbb852b5c	-0.0040640067
26	0x3d3f7b14	0.046748236
27	0xbd83446f	-0.06409537
28	0xbd1ccfd2	-0.03828413
29	0x3d8a83b5	0.067634024
30	0x3de46d41	0.11153651
31	0xbd060c0a	-0.032726325
32	0xbd654e34	-0.055982783
33	0xbd9dd161	-0.077059515
34	0xbdece4cd	-0.11567078
35	0xbcae533e	-0.021279927
36	0x3cda6bc0	0.026662707
37	0x3d9b7bc2	0.07591964
38	0x3a060841	0.0005112924
39	0x3caba98d	0.020954872
40	0x3bd3395a	0.006446046
41	0xbdb65da3	-0.089045785
42	0x3c28d2e0	0.010304183
43	0xbc8e0998	-0.017338559
44	0xbcea2a21	-0.028584542
45	0xbd1d33c4	-0.038379446
46	0xbc43cfab	-0.011951367
47	0xbda265d6	-0.0792958
48	0xbd4c9ac4	-0.049952284
49	0xbdbaa511	-0.09113515
50	0xbd515635	-0.051107604
51	0x3ce5fb97	0.028074069
52	0xbc912187	-0.017716182
53	0xbd4ec11c	-0.050477132
54	0x3cf0bcec	0.02938696
55	0x3db7b3a3	0.0896981
56	0x3d4306bf	0.047613855
57	0xbd0bfccd	-0.034176636
58	0xbd31fe2c	-0.043455288
59	0x3bb95085	0.0056553506
60	0x3c4568ea	0.012048939
61	0x3c61b587	0.01377619
62	0x3d13d2b6	0.03608962
63	0x3d7e5bd2	0.062099285
64	0xbd5a04e2	-0.053227313
65	0xbd6ff558	-0.058583587
66	0x3c8a73da	0.016900945
67	0xbd941311	-0.07230199
68	0x3b25a8fd	0.0025277727
69	0x3d796aa1	0.060892705
70	0x3d0ac5e7	0.03388014
71	0x3d06bdd3	0.032895874
72	0x3dafbf6b	0.08581432
73	0xbc02681b	-0.007959391
74	0x3c3306be	0.0109269
75	0xbd1c484f	-0.038154896
76	0x3b98c105	0.0046616816
77	0xbd9039b9	-0.0704226
78	0xb949e3cc	-0.00019253715
79	0xbc9b78da	-0.018978525
80	0xbcdd9c7e	-0.02705216
81	0x3c5b35b3	0.013379502
82	0xbbcc8e31	-0.0062425365
83	0xbd861b6e	-0.065482005
84	0x3dae3140	0.085054874
85	0x3d34d029	0.04414383
86	0x3d8edb41	0.06975413
87	0x3d534760	0.05158174
88	0xbd5c5e5f	-0.053800937
89	0x3c843a8f	0.016141204
90	0xbd1243f3	-0.035709333
91	0x3dbdbc80	0.09264469
92	0x3d17bcb4	0.037045196
93	0xbdf9062d	-0.12159381
94	0xbd5a0c1a	-0.053234197
95	0x3d9fe186	0.07806687
96	0x3d0a6c94	0.033794954
97	0x3cf328ca	0.029682536
98	0x3d2c5d5f	0.042081233
99	0x3cc7871b	0.024356415
100	0xbd89d48c	-0.06729993
101	0xbd8472f1	-0.06467236
102	0x3bd4a963	0.006489919
103	0xbd64e7d1	-0.05588514
104	0x3d4c3f84	0.04986526
105	0xbc31b316	-0.01084592
106	0xbcea80e1	-0.028625907
107	0xbd6031e8	-0.054735094
108	0x3db9fe15	0.090816654
109	0xbce7d2e3	-0.0282988
110	0xbce1221b	-0.027482083
111	0x3da17a7f	0.078846924
112	0x3cd95add	0.026532585
113	0x3d5641c9	0.05230883
114	0x3cd21231	0.02564344
115	0xbd2ba6d2	-0.04190714
116	0x3c9f8a6d	0.019475186
117	0x3ccb9f39	0.024856197
118	0xbd7505ea	-0.059820093
119	0xbd41c603	-0.04730798
120	0xbe045854	-0.1292432
121	0xbcae3c9a	-0.021269131
122	0xbb659f2b	-0.0035037498
123	0xbcb20837	-0.021732433
124	0xbd0cb0e3	-0.03434838
125	0xbbb57d77	-0.005538638
126	0x3cbf592c	0.02335795
127	0xbb44bee2	-0.0030021002
128	0xbd44f919	-0.04808912
129	0xbcc52bfd	-0.024068827
130	0x3d765ebf	0.06014895
131	0xbe159da5	-0.14610918
132	0xbcae739f	-0.021295367
133	0x3cbf267d	0.023333782
134	0x3d3ee126	0.046601437
135	0x3bff053b	0.007782606
136	0x3e0217e1	0.12704422
137	0x3c97b142	0.01851714
138	0xbb95cfb1	-0.004571878
139	0xbd0f822c	-0.03503625
140	0xbd5f7128	-0.054551274
141	0xbd689bc4	-0.056789175
142	0x3d53ce02	0.051710136
143	0x3d8a54c3	0.06754448
144	0x3cbf7047	0.023368968
145	0x3cbb87d7	0.022891922
146	0xbbb62b36	-0.0055593504
147	0xbdd36767	-0.10322457
148	0x3d5ef643	0.054434072
149	0xbd0afa0a	-0.033929862
150	0x3d8889f6	0.06666939
151	0x3d7e626d	0.062105585
152	0xbd1bd955	-0.03804906
153	0x3d9b7358	0.075903594
154	0xbcea0758	-0.028567955
155	0xbb6cc5a7	-0.0036128552
156	0xbc577e96	-0.013152739
157	0xbdb1c987	-0.086810164
158	0xbdb41cb9	-0.08794541
159	0x3de403f5	0.11133567
160	0x3d9310e8	0.07180959
161	0x3c387824	0.0112591125
162	0xbbe3c283	-0.006950678
163	0x3cf4b9d2	0.029873762
164	0xbd125a4d	-0.03573065
165	0xbd5deb98	-0.054179758
166	0x3cf83b5f	0.030301748
167	0xbd32688e	-0.043556742
168	0x3d35f501	0.044423107
169	0x3ca1732c	0.019708239
170	0xbcb437cc	-0.021999262
171	0x3ae1ca54	0.0017226436
172	0x3a11b539	0.00055583153
173	0x3c68f064	0.01421747
174	0xbcc26b63	-0.023732847
175	0x3cb20964	0.021732993
176	0x3c42e893	0.01189627
177	0x3dbb88de	0.09156965
178	0x3dd350da	0.103181556
179	0xbd4a47e4	-0.049384966
180	0x3ca16652	0.01970211
181	0x3d4e97b8	0.05043766
182	0x3bbcac60	0.0057578534
183	0xbda8c136	-0.08239977
184	0xbdaeaaa0	-0.08528638
185	0xbca1d259	-0.019753622
186	0xbc018cfe	-0.00790715
187	0x3c8187ee	0.015811887
188	0xbdaf3281	-0.08554555
189	0xbd07d35d	-0.033160556
190	0xbca4ff8c	-0.020141385
191	0xbdeb6a0c	-0.11494836
192	0x3d44d27f	0.048052307
193	0x3c8abcb9	0.016935693
194	0x3cc19823	0.023632115
195	0x3da95e61	0.082699545
196	0xbd15c75f	-0.03656709
197	0xbd9a85a0	-0.07545018
198	0xbd889d78	-0.0667066
199	0xbd256c75	-0.040386636
200	0xbc3b47b7	-0.011430672
201	0xbda28f76	-0.07937519
202	0xbcb68a60	-0.02228278
203	0xbce90ed5	-0.028449455
204	0x3cd10c8c	0.025518678
205	0x3d1a6f59	0.037703846
206	0xbc910551	-0.01770273
207	0x3c8f7ed4	0.017516531
208	0x3c357d5b	0.01107725
209	0x3c402faf	0.011730119
210	0xbd12fe89	-0.035887275
211	0x3dd8000f	0.10546886
212	0xbd92a96a	-0.071612194
213	0x3b7880a2	0.0037918468
214	0xbd978a33	-0.07399406
215	0xbdbe5403	-0.09293368
216	0x3dbfc1da	0.09363146
217	0xbd78350c	-0.060597464
218	0x3d8e9254	0.069615036
219	0xbd99cd6d	-0.07509885
220	0xbd1d6311	-0.038424555
221	0x3cc6d11e	0.024269637
222	0x3d7c707b	0.061630707
223	0xbbc20ac7	-0.005921695
224	0x3c3e0239	0.01159721
225	0xbdd80812	-0.10548414
226	0xbd41894d	-0.04725008
227	0x3c5d05f6	0.013490191
228	0x3c8704d7	0.0164818
229	0x3db2f316	0.08737771
230	0x3c916747	0.017749442
231	0x3d8680ae	0.065675125
232	0xbcab8738	-0.0209385
233	0xbc89d1d4	-0.016823687
234	0x3da8abdc	0.082359046
235	0x3cc46f2d	0.023978794
236	0xbd09710b	-0.03355507
237	0xbd84ffb7	-0.06494086
238	0x3c72afd9	0.014812433
239	0xbd9113ad	-0.07083831
240	0x3b47cd49	0.003048735
241	0xbcd549ac	-0.026036106
242	0xbd49e99a	-0.049295045
243	0x3cfa3cbc	0.030546539
244	0xba211eb4	-0.0006146238
245	0xbd82023c	-0.063480824
246	0x3d2a1316	0.041522108
247	0x3d72407a	0.05914352
248	0x3d8dbaf9	0.06920428
249	0x3cce6e77	0.025199158
250	0x3cf8b4aa	0.030359585
251	0xbd928f4a	-0.071562365
252	0x3deb4860	0.11488414
253	0x3d3d2865	0.0461811
254	0xbd4929be	-0.049112074
255	0x3c6d7fab	0.01449577

mlp_hidden_1.bias f4 [32]
0	0xbcdd0c9f	-0.026983557
1	0x3c3f5d8e	0.01168002
2	0x3ca45f47	0.020064963
3	0x3cf16cc0	0.029470801
4	0x3d82980a	0.063766554
5	0xb8608d88	-5.3537573e-05
6	0xbcc3cb9b	-0.023900798
7	0xbc5edb47	-0.0136020845
8	0xbcc0fe69	-0.023558812
9	0xbc36fbe1	-0.011168451
10	0x3cf3f04c	0.029777668
11	0xbc4f2918	-0.012644075
12	0xbd1b3070	-0.03788799
13	0xbc82cab2	-0.015965793
14	0x3c441bf9	0.01196956
15	0x3d5a9659	0.05336604
16	0x3c89da0b	0.016827604
17	0xbb35a4c9	-0.0027716628
18	0xbd3ab8d7	-0.045586433
19	0xbcbf1fa4	-0.023330517
20	0x3d71af19	0.059004877
21	0x3c5fd087	0.013660557
22	0x3c6c4548	0.014420815
23	0xbd24a105	-0.040192623
24	0x3ac6412c	0.0015125624
25	0xbc5339f9	-0.01289224
26	0xbbf12ec6	-0.007360312
27	0x3c79c509	0.015244731
28	0x3c354a75	0.011065115
29	0xbceb8b54	-0.02875296
30	0x3cd9c2fd	0.026582235
31	0xbd0dd4fa	-0.03462694

mlp_hidden_2.weight f4 [8, 32]
0	0x3d7e81a2	0.062135346
1	0xbce710b9	-0.028206216
2	0xbda7b935	-0.08189622
3	0x3d864e8a	0.06557949
4	0x3d3bc532	0.045842357
5	0xbca6b419	-0.02034955
6	0x3d307813	0.04308326
7	0x3d9e9c59	0.07744665
8	0xbc8c81fb	-0.017151823
9	0x3be8b664	0.007101821
10	0x3d19b66d	0.03752749
11	0xbd7fd838	-0.06246206
12	0xbdb778bf	-0.08958577
13	0x3d5b30ad	0.053513218
14	0xbcaa549c	-0.020792298
15	0x3d4aea2d	0.049539734
16	0xbd03252a	-0.032017864
17	0x3ca5d272	0.02024195
18	0xbd228c6f	-0.03968471
19	0x3cfaa450	0.030595928
20	0x3d7a64b1	0.061131183
21	0xbd77280d	-0.06034093
22	0x3d643961	0.055718783
23	0x3d323595	0.04350813
24	0x3cf9f889	0.030514019
25	0x3da5ea59	0.08101339
26	0xbd2dd63f	-0.04244065
27	0x3da3cd4a	0.0799814
28	0x3d28625f	0.04110944
29	0xbd4edd53	-0.05050404
30	0x3d465bf0	0.048427522
31	0xbd50040d	-0.050785113
32	0x3d7ff380	0.06248808
33	0xbd283f02	-0.041075714
34	0xbdb40230	-0.0878948
35	0x3d2b41bf	0.041810747
36	0x3d8ae126	0.06781225
37	0xbda633f3	-0.08115377
38	0x3d4af5f1	0.049550954
39	0x3d809470	0.06278312
40	0xbcce8200	-0.025208473
41	0x3d6ea073	0.058258485
42	0x3cafe21e	0.021470126
43	0xbcc4799e	-0.023983773
44	0xbce3b444	-0.027795918
45	0x3d5ae777	0.0534434
46	0xbd7fb3f5	-0.06242748
47	0x3caa8ee4	0.020820089
48	0xbd70d7bb	-0.058799487
49	0x3d8b2c81	0.06795598
50	0xbda5a788	-0.08088595
51	0x3d7d3a0f	0.061822947
52	0x3cf616e1	0.030040206
53	0xbd45da2c	-0.048303768
54	0x3d66ad40	0.056317568
55	0x3cc6f39e	0.024286088
56	0x3d764f98	0.0601345
57	0x3d8ffcc7	0.07030635
58	0xbd0076df	-0.031363364
59	0x3d018fd1	0.031631295
60	0x3ce72c32	0.028219316
61	0xbd60edb5	-0.054914195
62	0x3d40902e	0.0470125
63	0xbd68482e	-0.05670946
64	0xbd58044f	-0.052738484
65	0x3ca10c33	0.019659137
66	0x3da2e6c7	0.079541735
67	0xbd318abc	-0.043345198
68	0xbd44b9d0	-0.048028767
69	0x3d57a12d	0.052643944
70	0xbd820c1c	-0.06349966
71	0xbd0c81e8	-0.034303576
72	0x3d379352	0.04481823
73	0xbd79b924	-0.06096758
74	0xbd866980	-0.06563091
75	0x3d7f699e	0.062356584
76	0x3d8a2695	0.0674564
77	0xbdc04d88	-0.09389788
78	0x3ce48efa	0.027900208
79	0xbd6968bc	-0.056984648
80	0x3d88d4f0	0.066812396
81	0xbd0ddab4	-0.0346324
82	0x3d46f462	0.048572905
83	0xbd6f818e	-0.058473162
84	0xbd8b1b42	-0.067923084
85	0x3d770ca8	0.060314804
86	0xbd12f1b0	-0.035875022
87	0xbd4ed196	-0.050492845
88	0xbd89b60d	-0.067241766
89	0xbd424c5b	-0.0474361
90	0x3bf22164	0.0073892344
91	0xbd7c7a62	-0.06164015
92	0xbd9d1813	-0.076706074
93	0x3cf485f7	0.029849036
94	0xbd3e7291	-0.046495978
95	0x3d8f0f7c	0.06985375
96	0x3d3ccd61	0.046094302
97	0xbd1bd548	-0.038045198
98	0xbd7d5a55	-0.061853725
99	0x3d848c8f	0.06472122
100	0x3da2aa9c	0.079426974
101	0xbd989572	-0.074503794
102	0x3da21ebc	0.07916018
103	0x3d66ae89	0.056318793
104	0xbd2f3c27	-0.042781975
105	0x3b559eaa	0.0032595792
106	0x3d8122ae	0.06305443
107	0xbc9de83c	-0.019275777
108	0xbd2b0e3b	-0.041761618
109	0x3d499282	0.049211986
110	0xbd38c8e7	-0.04511347
111	0x3d2b39a0	0.041803002
112	0xbd3b79b2	-0.045770355
113	0x3d802a2a	0.06258042
114	0xbdb721f4	-0.08942023
115	0x3d9d2b1f	0.0767424
116	0x3d88eb20	0.066854715
117	0xbd020597	-0.031743612
118	0x3d6b5ccb	0.05746154
119	0x3c9d5fcc	0.019210719
120	0x3d9fc507	0.07801252
121	0x3d67b2f1	0.056567136
122	0xbd6f337a	-0.0583987
123	0x3d714f44	0.058913484
124	0x3d5d0634	0.053960994
125	0xbc9624db	-0.018328121
126	0x3d1f3268	0.03886643
127	0xbd8bd282	-0.068272606
128	0xbd499f90	-0.049224436
129	0x3d2e1441	0.042499784
130	0x3d68af6b	0.056807917
131	0xbd850f86	-0.064971015
132	0xbd2aa21b	-0.041658502
133	0x3d72425d	0.05914532
134	0xbdb59d72	-0.08867921
135	0xbd4f6953	-0.050637554
136	0x3d9bf147	0.076143794
137	0xbd80b6a5	-0.06284837
138	0xbda6021e	-0.081058726
139	0x3dbc491b	0.09193631
140	0x3d379f86	0.044829868
141	0xbd7d73d6	-0.061878048
142	0x3d7a87ba	0.061164595
143	0xbd74faa5	-0.059809346
144	0x3d312720	0.043250203
145	0xbd33dc3b	-0.0439112
146	0x3d037b28	0.032099873
147	0xbd8a2edd	-0.0674722
148	0xbd4cef17	-0.0500327
149	0x3d8b25eb	0.06794342
150	0xbd36bfb6	-0.044616424
151	0xbd9263ad	-0.07147918
152	0xbd4dc1e5	-0.05023374
153	0xbcdb0e58	-0.026740238
154	0x3d0fa7a5	0.035071988
155	0xbd8335bd	-0.06406734
156	0xbd285fff	-0.041107174
157	0x3d0e68bf	0.034767862
158	0xbd7d932d	-0.061907936
159	0x3d7541be	0.05987715
160	0xbc47f0a3	-0.012203368
161	0x3d2c91db	0.042131286
162	0x3cf05d33	0.029341316
163	0xbd3238d9	-0.043511245
164	0xbceaf531	-0.02868137
165	0x3d690061	0.056885127
166	0xbd251148	-0.040299684
167	0xbd8842b8	-0.066533506
168	0x3d94e175	0.07269565
169	0xbd9eb882	-0.07750036
170	0xbcae6faa	-0.02129348
171	0x3d49d840	0.049278498
172	0x3d0c05b7	0.034185138
173	0xbd84cf77	-0.06484883
174	0x3d53dc69	0.05172387
175	0xbd2d2083	-0.042267334
176	0x3de5b6df	0.112165205
177	0xbd194350	-0.03741771
178	0x3d2ca442	0.042148836
179	0xbd016ac5	-0.031595964
180	0xbd3b234b	-0.045687955
181	0x3dc7ffd3	0.097655915
182	0xbcadd139	-0.02121793
183	0xbd7e50e1	-0.06208885
184	0xbd4d656c	-0.05014555
185	0xbd4d8f8b	-0.05018572
186	0x3d67b6bb	0.05657075
187	0xbd8dd559	-0.069254585
188	0xbd769751	-0.0602029
189	0x3d877d20	0.066156626
190	0xbcec850d	-0.028872037
191	0x3d3f3555	0.04668172
192	0x3d555101	0.052079204
193	0xbd26f862	-0.04076422
194	0xbd50da05	-0.05098917
195	0x3cc29b00	0.02375555
196	0x3d6b3556	0.057423912
197	0xbdc684f6	-0.09693329
198	0x3d172339	0.036898825
199	0x3d7ea79e	0.06217157
200	0xbd45ed92	-0.048322268
201	0x3d2d7714	0.04234989
202	0x3dd6369d	0.104596354
203	0xbd3706f5	-0.04468437
204	0xbd6215df	-0.05519664
205	0x3d94f860	0.07273936
206	0xbc85c5cb	-0.016329667
207	0x3cd58284	0.026063211
208	0xbd76cef7	-0.06025597
209	0x3d9c1bd3	0.076224945
210	0xbd31cc51	-0.043407742
211	0x3d9604f3	0.07325163
212	0x3cbafa25	0.022824356
213	0xbd58e3d9	-0.052951667
214	0x3d23e293	0.040011
215	0x3da141ce	0.078738794
216	0x3cc7e286	0.024400007
217	0x3db014d3	0.08597722
218	0xbd35ab08	-0.04435256
219	0x3d8a031e	0.06738876
220	0x3d8d33c5	0.0689464
221	0xbd0a6fdb	-0.03379808
222	0x3d6cb0fe	0.05778598
223	0xbd02ffc6	-0.031982206
224	0x3d872970	0.065997005
225	0xbd48d10b	-0.049027484
226	0xbd181873	-0.03713269
227	0x3d70aae6	0.05875673
228	0x3c0d7329	0.008633413
229	0xbc9b4ae1	-0.018956603
230	0x3d880b11	0.06642736
231	0x3dafbdc2	0.08581115
232	0xbdad71cb	-0.0846897
233	0x3d11a561	0.03555811
234	0x3d780c59	0.06055865
235	0xbd7c3fbc	-0.06158422
236	0xbd49b9e5	-0.04924955
237	0x3da457e7	0.080245785
238	0xbd253671	-0.040335122
239	0x3d605357	0.05476698
240	0xbd9857f5	-0.074386515
241	0x3d7eca46	0.06220462
242	0xbd2cf8a6	-0.042229317
243	0x3d4fb74f	0.050711926
244	0x3d1c33ae	0.038135223
245	0xbd04828a	-0.032351054
246	0x3dbfe025	0.09368924
247	0x3cf7d832	0.030254457
248	0x3d45ab8c	0.048259303
249	0x3cbec4db	0.023287227
250	0xbcdece90	-0.027198106
251	0x3d7048c3	0.05866314
252	0x3d9abb32	0.07555236
253	0xbd8f3683	-0.06992819
254	0x3d62db0a	0.055384673
255	0xbd12662e	-0.035741977

mlp_hidden_2.bias f4 [8]
0	0x3c65bbb4	0.014021803
1	0x3c7aed31	0.01531534
2	0x3c81df41	0.015853526
3	0x3b689b08	0.0035492796
4	0xbb959b9a	-0.0045656683
5	0xbc92768c	-0.017878793
6	0xbb8d0918	-0.0043040626
7	0x3c34540f	0.011006369

mlp_out.weight f4 [2, 8]
0	0xbe22c964	-0.15897137
1	0xbe522b1f	-0.20524262
2	0x3d03d3f5	0.03218456
3	0xbe1f238f	-0.15540908
4	0x3b5ac0d4	0.0033379095
5	0x3db5e35a	0.088812545
6	0x3d6e2e99	0.058149908
7	0xbe901169	-0.28138283
8	0x3dee3a1d	0.11632178
9	0x3dcdbd26	0.10045843
10	0xbe85f0d4	-0.261603
11	0x3e126cb0	0.14299273
12	0xbe9b0bfa	-0.30282575
13	0xbe559b9a	-0.20860139
14	0x3eb23955	0.34809366
15	0x3bd0b89e	0.0063696643

mlp_out.bias f4 [2]
0	0x39bb88d1	0.00035769356
1	0xbcd22182	-0.025650743
